…
2020-05-06 02:44:54.640947: I tensorflow/core/platform/profile_utils/cpu_utils.cc:94] CPU Frequency: 3193555000 Hz
2020-05-06 02:44:54.641686: I tensorflow/compiler/xla/service/service.cc:168] XLA service 0x3d27a90 executing computations on platform Host. Devices:
2020-05-06 02:44:54.641713: I tensorflow/compiler/xla/service/service.cc:175]   StreamExecutor device (0): <undefined>, <undefined>
Model: "sequential"
_________________________________________________________________
Layer (type)                 Output Shape              Param #
=================================================================
permute (Permute)            (None, 84, 84, 4)         0
_________________________________________________________________
conv2d (Conv2D)              (None, 20, 20, 32)        8224
_________________________________________________________________
activation (Activation)      (None, 20, 20, 32)        0
_________________________________________________________________
conv2d_1 (Conv2D)            (None, 9, 9, 64)          32832
_________________________________________________________________
activation_1 (Activation)    (None, 9, 9, 64)          0
_________________________________________________________________
conv2d_2 (Conv2D)            (None, 7, 7, 64)          36928
_________________________________________________________________
activation_2 (Activation)    (None, 7, 7, 64)          0
_________________________________________________________________
flatten (Flatten)            (None, 3136)              0
_________________________________________________________________
dense (Dense)                (None, 512)               1606144
_________________________________________________________________
activation_3 (Activation)    (None, 512)               0
_________________________________________________________________
dense_1 (Dense)              (None, 4)                 2052
_________________________________________________________________
activation_4 (Activation)    (None, 4)                 0
=================================================================
Total params: 1,686,180
Trainable params: 1,686,180
Non-trainable params: 0
_________________________________________________________________
None
Training for 1750000 steps ...
Interval 1 (0 steps performed)
2020-05-06 02:44:54.992018: W tensorflow/compiler/jit/mark_for_compilation_pass.cc:1483] (One-time warning): Not using XLA:C
…
